kmnist_cnn_weights.pth (torch, 977738 bytes, 22 tensors)

conv1.weight f4 [32, 1, 3, 3]
000000 c0 c3 38 3e 51 60 3c be 00 1d ba 3d a9 3f 07 3e
       0.18043423 -0.18396117 0.090875626 0.13207878
000010 7a 8b 6a be 32 fb 41 3e d6 83 b2 bd 65 29 87 3e
       -0.22904769 0.1894348 -0.08716552 0.2639877
000020 a7 7b b4 be 39 16 33 bd 1b 69 45 3e 71 87 77 3d
       -0.3525059 -0.043722365 0.19278376 0.0604319
000030 c9 36 3c 3e 40 06 21 be 0b c1 43 3e 62 7a 20 3e
       0.18380274 -0.1572504 0.19116609 0.15671685
000040 d7 7a 95 3d 2b b7 de 3d e7 98 41 3e 90 56 0e bd
       0.072988205 0.1087478 0.18905984 -0.03475052
000050 bf 38 7b 3e 89 c4 82 bd 4e b9 20 3e e6 98 c2 be
       0.24533366 -0.06385142 0.15695688 -0.38007277
000060 4d b4 31 be 51 b4 c9 be 3c 17 82 3d 6f 62 e6 be
       -0.17353936 -0.39395383 0.06352088 -0.44996974
000070 c2 e1 26 bd df 76 7b 3e dc 87 64 be 1e 96 00 3e
       -0.040742643 0.24557064 -0.22317451 0.12557265
000080 4d e9 bb 3d 0e 10 17 3e 7b 70 9b 3e 4a 8e e3 bd
       0.09175358 0.14752218 0.30359253 -0.11111124
000090 d5 9d 88 3d 10 e9 43 3e fd e4 8b 3d a2 40 89 be
       0.06670729 0.19131875 0.068307854 -0.26807123
0000a0 8b 53 3a be fa 8d 6e be 88 2d 06 bd ff 2c 42 be
       -0.18195932 -0.23296347 -0.032758266 -0.18962477
0000b0 4b ea 36 be 43 41 55 3e c8 8a a9 be 78 26 f0 3c
       -0.17862813 0.20825677 -0.33113694 0.029315218
0000c0 89 14 b3 be f1 f0 88 3e 03 49 a9 3c 1f e9 69 3e
       -0.34976605 0.26746324 0.020664698 0.22842835
0000d0 49 eb e3 bd f5 c0 bf bc 0f bc 42 be 96 46 81 be
       -0.111288615 -0.023407439 -0.19017051 -0.25249165
0000e0 df ce 2b be f9 dd 7f be 1e 6e 11 bb b7 be 1a 3e
       -0.16778134 -0.2498702 -0.002219088 0.15111814
0000f0 fe 38 03 be c7 c8 88 3e a3 b2 f4 bd b9 7a 48 be
       -0.1281471 0.2671568 -0.11948135 -0.19578065
000100 56 c1 e8 3d c0 f4 47 3e a5 8b ae 3d 75 0b 95 3e
       0.11365001 0.19526958 0.08522729 0.29110304
000110 95 e3 95 be 46 3c 22 3e b1 f7 73 be 58 7b e3 bd
       -0.29275194 0.15843305 -0.23824956 -0.1110751
000120 1d de 9c 3c f3 07 d9 bc 3c d5 12 3c 5b d1 7d 3e
       0.01914888 -0.026493048 0.008961972 0.24786894
000130 f8 9d 8a be 6c bf a9 3d c4 b3 18 3e b3 4e bc be
       -0.27073646 0.08288464 0.14912325 -0.36778793
000140 a0 82 3e 3e eb 23 85 3d 89 51 97 3c 46 8b 11 3e
       0.18604517 0.065009914 0.018471496 0.14213285
000150 67 d4 15 3c d5 1e 5f be c9 11 6f 3e 0e e3 26 bd
       0.009144879 -0.21789105 0.23346628 -0.04074388
000160 33 57 39 3e b3 34 d1 be 0a 38 a0 3c fc fd eb bc
       0.1809967 -0.4086052 0.019557972 -0.028807633
000170 0a bd c7 bd c8 00 8b bc ff 71 a9 3e 95 86 4e be
       -0.09752853 -0.016968146 0.33094785 -0.20168526
000180 69 a1 d8 be 41 77 29 3e b5 e5 9d bc ef e7 98 3d
       -0.42310646 0.16549398 -0.019274572 0.07466113
000190 03 8b 23 bd d7 8e 40 be 55 fe a5 3c b9 1b 18 be
       -0.039927494 -0.18804489 0.020262877 -0.14854325
0001a0 4f ce 80 be ff b3 8f 3e af ab 0c 3e 32 90 a3 be
       -0.251574 0.28067014 0.13737367 -0.3194595
0001b0 b5 16 d3 bd 64 41 06 3e 1f 3d 28 ba 7b 8e 3a 3e
       -0.103070654 0.13110882 -0.0006417799 0.18218414
0001c0 ac fc 77 bd ab 77 58 be 42 f3 bf 3d 6e ce 52 3d
       -0.0605437 -0.211394 0.093725696 0.051466398
0001d0 88 1c 1b be 19 51 fe bd 08 2d 53 3e 45 a4 be 3c
       -0.15147603 -0.12417812 0.20622647 0.02327169
0001e0 06 92 83 be fd e1 47 3e 25 8f f4 3d a0 34 7c be
       -0.25697345 0.19519801 0.11941365 -0.2462945
0001f0 2c fa ab be c1 bd a2 bc d7 5f 07 be 30 1c ad be
       -0.33589303 -0.019865872 -0.13220154 -0.33810568
000200 a7 4b 65 be 40 bc 65 3d e5 20 88 bb 25 d9 98 bd
       -0.2239214 0.056087732 -0.004154312 -0.07463292
000210 c6 cc 8d 3e ef 3c b6 3e b6 e9 8c 3e 28 c4 4f bd
       0.27695292 0.35593364 0.27522057 -0.05072418
000220 7e 59 64 be 19 39 3e 3e 2a bc 9d be 5e 49 0d 3e
       -0.22299764 0.18576469 -0.3080762 0.13797519
000230 69 1c 53 bd b4 71 71 be 5e c3 65 3d 9d 93 6f 3d
       -0.051540766 -0.2357853 0.05609452 0.058490384
000240 45 47 c3 bc cb 99 06 be aa 4c 09 be 28 61 1d 3e
       -0.023837695 -0.13144605 -0.13408151 0.15369093
000250 01 8e 18 3e ad 98 c8 be 1c 07 08 be 24 b0 79 3e
       0.1489792 -0.39178982 -0.13283962 0.24383599
000260 7a de 1c bd 49 68 94 3d 04 09 83 3e 8a 93 8a be
       -0.038298108 0.07246453 0.25592816 -0.27065688
000270 e1 ad b9 3d bd ee 8b bd 73 72 72 be cd 86 e2 bb
       0.09066368 -0.06832645 -0.23676471 -0.006913042
000280 11 19 20 be 1f f0 c7 3c 34 78 dc 3d be ad 30 3e
       -0.15634562 0.02440649 0.107651144 0.17253777
000290 e8 95 03 3e b8 15 10 3e d5 93 37 3d 58 fa eb bc
       0.12850153 0.14070785 0.044818718 -0.028805897
0002a0 cb 79 b2 be 97 47 88 be bf d5 0f be b7 2a 11 3e
       -0.34858546 -0.2661712 -0.14046381 0.1417645
0002b0 89 fc 99 be 6e 19 cb bd 14 8e 1e 3e 80 2c 58 3e
       -0.30075482 -0.0991696 0.15483886 0.21110725
0002c0 92 87 59 3e bf b7 8a be e0 98 92 be 6f 3d e5 bd
       0.21243122 -0.27093312 -0.2863226 -0.11193358
0002d0 5e e6 ae bd f1 00 f0 3d af be 83 3e 3e 1a d0 bd
       -0.08540033 0.117189296 0.25731418 -0.10161255
0002e0 20 b4 4b be 24 eb 9b 3d 0c 9d 0d 3b 38 b7 9b be
       -0.19892931 0.07613209 0.00216085 -0.30413222
0002f0 03 32 ba 3d 5b 99 8c bc 64 1d a6 3c ee ff 9c 3e
       0.0909157 -0.01716297 0.020277686 0.3066401
000300 0b 7c 70 bd 84 47 86 be e3 bb 05 be af 67 95 be
       -0.058712047 -0.26226437 -0.13059954 -0.29180667
000310 3d 9a 9d be 82 91 ae be ef 9b 35 be 59 22 83 be
       -0.30781737 -0.3409539 -0.17735265 -0.25612143
000320 c4 60 41 3e 82 cc 9f 3e 2c 09 6d 3d c8 07 9a bd
       0.1888457 0.31210715 0.057870075 -0.075210154
000330 91 a3 26 be 2d 7b f4 3c b6 c1 a7 bc fd 48 ea bd
       -0.16273333 0.029843891 -0.02047811 -0.11439703
000340 cb c1 d5 bd 56 fa 56 3e cf 5b 81 3d 6c 4e 69 3b
       -0.10437354 0.20993933 0.06316339 0.0035599722
000350 cc b3 43 be 34 17 88 3d 3b ca e0 3d af 11 35 bd
       -0.19111556 0.06645051 0.109760724 -0.044206318
000360 92 fe 93 3e a0 e0 99 bc ee 6d a9 be 20 79 c2 bd
       0.2890516 -0.018783867 -0.33091682 -0.09495759
000370 48 4a a3 be ba 36 23 3a 07 1a fc bd 48 e8 0d be
       -0.3189261 0.00062261114 -0.12309652 -0.1385814
000380 03 36 2e 3e db 1f 54 3c 9a a4 d6 bd e9 50 c4 bd
       0.17012791 0.012947048 -0.10480614 -0.09585745
000390 7f f9 bd 3d d3 7f 36 bd 8e 8d aa 3e 32 22 16 be
       0.09276103 -0.044555496 0.33311123 -0.14661482
0003a0 2e f7 04 3e 72 9f ab be ce 2c d7 3d e3 44 d9 bc
       0.12984917 -0.33520085 0.10506593 -0.026522106
0003b0 7d 0d 21 be 8c 93 93 3d 4c 67 93 3e 91 74 6e bc
       -0.15727802 0.07205877 0.28789747 -0.014554159
0003c0 48 61 02 be ac fa 14 bd 3f 1d 84 3e 24 13 83 be
       -0.12732422 -0.03637187 0.25803563 -0.2560054
0003d0 5c 12 90 bd c5 9f 77 3e 25 a9 11 3e 59 ef e6 be
       -0.07034752 0.24182041 0.1422468 -0.45104483
0003e0 d8 86 09 3d f9 71 90 3e 9f 68 25 be a2 f8 40 be
       0.033575863 0.28211954 -0.16153191 -0.18844846
0003f0 81 27 b4 be 28 63 a6 3d 27 91 8d 3d 61 1c 35 be
       -0.3518639 0.08124381 0.06912451 -0.17686607

conv1.bias f4 [32]
000000 55 e1 a8 bd a0 71 4c 3e 85 4c cb be 63 d3 ab be
       -0.08246104 0.1996522 -0.39706817 -0.33559713
000010 41 20 6d be 69 67 49 3e ed 0f 4f be c6 3d c8 3d
       -0.23156835 0.19668354 -0.20220919 0.09777407
000020 d8 25 3d be de e1 a3 3e d6 d7 d4 3d 34 a7 b1 be
       -0.18471467 0.3200826 0.1039273 -0.34697878
000030 4d e6 68 3d 38 94 52 3d 2e 0f 53 bd 01 de a6 be
       0.056860257 0.051410884 -0.05152815 -0.3259125
000040 29 c1 81 3e 86 58 1a 3c 98 69 7c 3e af 3a 1d be
       0.25342682 0.00942052 0.24649656 -0.15354417
000050 06 bb 86 be 1a 55 90 be fe ac ec 3d bd 57 4b be
       -0.26314563 -0.28189927 0.11556433 -0.19857688
000060 d1 40 ad bd b6 f1 b8 3d b0 9b e1 be 2e 12 f3 bd
       -0.084596284 0.09030478 -0.44064093 -0.11868702
000070 f7 96 ad bd 72 9a 70 bd 91 e5 c3 be c3 95 31 3e
       -0.0847606 -0.05874104 -0.38261083 0.17342286

conv2.weight f4 [64, 32, 3, 3]
000000 62 52 d7 bd 11 35 01 3e cf cf 09 3e 65 a8 14 bd
       -0.1051376 0.126179 0.13458179 -0.036293406
000010 22 83 b9 3b 8c 47 2a bd b8 16 e5 bd d6 9d fa bd
       0.005661384 -0.04157214 -0.11185974 -0.12237136
000020 b7 a3 cf bd 7a 14 5b 3d 54 c3 32 3c 68 d2 28 bd
       -0.10138648 0.053486325 0.010910828 -0.041216284
000030 01 45 3a bd 99 56 51 be ac c6 1e be 41 a0 19 be
       -0.045475964 -0.2044319 -0.15505475 -0.15002538
000040 e5 24 13 be c1 bd ad bd 5d 06 1f bc a6 77 00 be
       -0.14369543 -0.08483458 -0.009706107 -0.12545642
000050 c5 c1 04 bb 42 0c cc 3d 4b a9 c2 3d 23 04 d2 3d
       -0.0020257097 0.099632755 0.09504946 0.10254695
000060 60 09 03 3e 35 66 86 bd da cb 0d 3d d5 d6 e3 3d
       0.12796545 -0.06562463 0.034618236 0.1112496
000070 5f 42 d1 3c ce b3 96 3a 82 14 d5 bd d0 21 2f be
       0.025544344 0.0011497678 -0.10404302 -0.17102742
000080 aa 02 11 bd a9 61 7c be 55 e4 c0 3c af 15 94 3d
       -0.03540293 -0.2464663 0.023546377 0.07230698
000090 58 8c a9 bd c9 c3 2c 3d 39 bf 79 3d 39 72 1c 3e
       -0.082787216 0.042178903 0.06097338 0.15277947
0000a0 25 41 95 3d ad 64 eb 3c 64 c6 b8 3d 67 cf 97 3d
       0.07287816 0.02873453 0.09022215 0.07412606
0000b0 22 72 94 bd 11 48 ba 3d 14 66 2b bd 54 f7 b9 bd
       -0.072483316 0.09095777 -0.041845396 -0.09080377
0000c0 2e 67 32 be e8 30 0d be a9 71 03 bc ba 1d 1e bd
       -0.17422172 -0.13788188 -0.008022704 -0.03860257
0000d0 56 f0 db 3b 84 f3 1d 3e bd f5 85 bd e6 d1 90 bd
       0.006712 0.15424925 -0.065410115 -0.07071285
0000e0 b6 a8 84 bc c1 2f 4e bd 46 fd 48 3c 23 1f 65 3e
       -0.016193729 -0.05033851 0.012267416 0.22375159
0000f0 09 f5 90 3d 1a 7d d9 3d c2 a6 a4 3d 6c 51 2e 3b
       0.07077987 0.10619564 0.08039619 0.0026598824
000100 34 32 5c bc e1 fd c9 3d ff ff a1 3d e7 18 00 3e
       -0.013439704 0.09862877 0.079101555 0.125095
000110 63 c7 a5 3b 91 95 bb bd 06 a9 18 be 2b bf 0b 3d
       0.005059169 -0.09159387 -0.14908227 0.03411786
000120 91 02 f3 bd 06 46 c5 3c 4e a8 07 3e 21 44 35 bd
       -0.11865724 0.024081241 0.13247797 -0.044254426
000130 ab 95 a2 bc d6 a6 c4 bd fd 66 23 be d1 c0 82 be
       -0.019846758 -0.09602134 -0.15957256 -0.25537732
000140 36 72 2c be 75 0b 4c bc 1d 88 0b 3d b3 70 14 3d
       -0.16840443 -0.012453903 0.034065355 0.03624029
000150 10 b6 06 3e 7c fe 48 bc c6 ae 34 be 6c 32 54 3d
       0.13155389 -0.012267705 -0.17644796 0.0518059
000160 5b d1 27 be 68 11 36 be 8a ab b5 3c d7 51 aa 3d
       -0.16388457 -0.17780077 0.022176523 0.08316391
000170 ab 48 b3 3c 2b 3a 77 3c b4 ff 15 bd 9a c1 8d 3c
       0.021885237 0.015089552 -0.03662081 0.01730423
000180 46 45 11 be 68 b3 bb bd 81 c5 56 bd 81 51 97 3d
       -0.14186582 -0.091650784 -0.05243445 0.073885925
000190 cd 05 46 3e c9 c9 2f 3d 93 6a 45 be 2b 0f 95 be
       0.1933815 0.042917047 -0.19278936 -0.29113135
0001a0 61 d6 b8 be 81 d8 56 be 23 c8 c3 be 4c 7a 0b be
       -0.36101058 -0.20981027 -0.3823863 -0.13620871
0001b0 0c bb 70 3c 08 1f b5 3d 01 03 b5 3d 4e 8b 83 bd
       0.014693033 0.08843809 0.088384636 -0.06423055
0001c0 97 0e 21 bd 5f 29 3b be af 76 db bd b2 a6 67 be
       -0.039320555 -0.182775 -0.107159965 -0.22622183
0001d0 e4 ed f9 bd 8f e1 d6 39 c5 4b 83 3d bd b6 83 3d
       -0.12203577 0.00040985315 0.06410936 0.06431339
0001e0 b5 2a 05 3b ee 50 2e 3e 83 f1 a3 bd 2f 83 b0 3d
       0.0020319645 0.1702306 -0.08005049 0.08618771
0001f0 85 ca 37 bd da b7 d5 3c fb 30 50 3c 37 09 27 bd
       -0.044870872 0.026088644 0.01270699 -0.040780272
000200 a5 ba 1c be ef ea b5 bd 89 98 0e be fe eb ae 3d
       -0.15305574 -0.08882701 -0.13925375 0.08541106
000210 88 ce 0e bd 14 b4 97 3d cc ee eb 3d 0e 4b 95 3d
       -0.034864932 0.07407394 0.11520156 0.07289706
000220 ca 43 46 3e b2 39 88 3c b4 01 d2 bd 31 79 c8 bd
       0.19361797 0.016629074 -0.10254231 -0.097887404
000230 c9 7d 75 be c2 b4 4b be 47 cc d6 bd 98 22 2c be
       -0.23973764 -0.19893172 -0.104881816 -0.16810071
000240 6b fa 1c be 02 b2 0d 3d 6c a0 e7 3c ed fa 9e bd
       -0.15329902 0.03459359 0.028274737 -0.07762704
000250 97 f5 2b bd c1 8d 9e bd be 9a f4 bd 41 ac fe bd
       -0.04198226 -0.07741881 -0.11943577 -0.124351986
000260 47 d1 7c be 5d 01 a7 3a 5a 18 d1 3d 6f 2f ab 3d
       -0.24689208 0.0012741495 0.10209723 0.083586566
000270 1f 5a b1 bd 78 07 90 3d 5b 4a 40 3e f1 1c f9 bd
       -0.08659767 0.070326746 0.18778364 -0.12163723
000280 b3 24 5a bd cb 4e 6e bd 84 f4 0a bd f8 17 9a b7
       -0.053257655 -0.05818061 -0.033924595 -1.8369392e-05
000290 7d db 0d 3c 0b bb d6 3d 50 ff 56 3d 82 cc a8 3d
       0.008658287 0.10484894 0.05248958 0.08242132
0002a0 d7 d1 8c 3d 94 3d 74 3c aa 8f f4 bd 3e 51 20 be
       0.06875961 0.0149072595 -0.11941464 -0.15655991
0002b0 f1 a4 a1 3d 19 7b 58 3c fc 5c 53 3d b2 5f 18 bc
       0.07892788 0.0132129425 0.05160235 -0.009300159
0002c0 86 7e 2b bd 6a b2 11 bd 3d e8 79 bd 77 9a 97 bc
       -0.04186871 -0.03557054 -0.061012495 -0.018506272
0002d0 f4 dc db 3d 12 94 19 bb 04 81 ce bd 56 2b fb bc
       0.10735503 -0.0023434204 -0.100832015 -0.030660313
0002e0 3c db eb bd 53 b0 a3 be 2f 6f 25 be 6e 6c 35 be
       -0.11516425 -0.31970462 -0.16155694 -0.17717144
0002f0 c0 26 88 be 89 04 2c bd e9 ea 84 3d e1 9d f6 bd
       -0.26592064 -0.041996513 0.06490118 -0.12041832
000300 af 92 d9 3d 4d ad 02 3d b5 52 6f bc 57 a1 09 3e
       0.10623681 0.031903554 -0.014607121 0.13440453
000310 c2 5f bb bc a8 75 d1 bd b1 9c a9 3b 09 4c 17 bd
       -0.02287281 -0.10227519 0.00517615 -0.036937747
000320 ee 15 63 bd 00 8d 77 3d 4f f9 24 bd 57 a2 52 be
       -0.055440836 0.060437202 -0.04027682 -0.2056974
000330 90 40 8f 3c b0 5c dd 3b 76 87 16 3c 4d fa 83 3d
       0.01748684 0.006755434 0.00918757 0.064442255
000340 81 b8 a7 bd ad 80 48 bd 39 67 05 be ca 87 56 be
       -0.08189488 -0.04895084 -0.13027658 -0.20950237
000350 a5 6b 45 be 22 03 d8 bd f2 c5 ad bd 3a b8 3b 3d
       -0.19279344 -0.105474725 -0.08485021 0.04582999
000360 6b ab 81 3d ae 11 7f b8 af 2c 80 3d 4a 0e ef bb
       0.063315235 -6.0813203e-05 0.06258523 -0.0072954046
000370 2f d0 a9 3d 0a db 83 3e ea 41 04 bd e2 fe 46 3d
       0.08291661 0.2575305 -0.032289423 0.04858292
000380 65 bf 45 bd 3f 48 0d be ed 8c 83 3c 4e 1f 7e 3c
       -0.04827823 -0.13797091 0.01605841 0.015510393
000390 23 8e b2 3c ca b8 bb b9 5b 69 49 bd 9c 88 a9 bd
       0.021796292 -0.00035805098 -0.04917274 -0.08278009
0003a0 9a 4a 8c 3d 86 5c e3 bd 8e 81 77 ba 9b da 3a bd
       0.068501666 -0.11101632 -0.00094416074 -0.045618635
0003b0 2e c8 5f be 6e 9d 36 bd 13 ad 12 be 8a 5c 5e be
       -0.21853706 -0.04458373 -0.14323835 -0.21714988
0003c0 15 90 84 be 70 79 e6 bd d2 52 4e bb d9 05 c5 3b
       -0.25891176 -0.11253631 -0.003148247 0.00601266
0003d0 c6 21 a3 3d 23 1d 0e bd 9b be 68 3d e0 55 25 3c
       0.07965426 -0.034695756 0.0568224 0.010091275
0003e0 d8 4f b7 be ac cf df bc 3e 1b 84 bd f3 6b f2 bd
       -0.35803103 -0.027320705 -0.064505085 -0.11836996
0003f0 b5 5f 88 bc 6d d7 23 be 97 31 5e 3d cd eb d6 bd
       -0.0166472 -0.16000147 0.05424651 -0.10494194

conv2.bias f4 [64]
000000 dd 72 d0 bd 94 21 a6 bc a3 b4 ff bd bd 8d b1 be
       -0.101781584 -0.020279683 -0.124856256 -0.3467845
000010 b9 58 da bb 41 8f 06 be 59 3f 8e bd d2 37 3f bd
       -0.0066634086 -0.13140585 -0.06945676 -0.046684094
000020 eb 0f 9f be e5 ea 2b bd e6 a9 88 bd 7f 05 de bd
       -0.31066832 -0.04197206 -0.066730306 -0.10840892
000030 8a 7f 52 be 2b 18 89 bd 45 b3 70 bd b7 57 30 3d
       -0.20556465 -0.06694063 -0.058764715 0.0430524
000040 b9 f2 0a bd e8 8a d0 bd 35 77 a6 bd 4a 9d d1 bd
       -0.033922885 -0.10182744 -0.08128206 -0.10235079
000050 3c 4b 6d bd cd 3c 7f be 97 0f 9a bd 6f 20 2a be
       -0.057933077 -0.24925537 -0.07522505 -0.16613935
000060 8b 0a 31 be 7d 78 d0 3c ee 6d 59 3c 72 68 1b be
       -0.17289178 0.025448078 0.013270838 -0.15176561
000070 fc 10 8e 3d 1e c8 07 3d 57 5d 5a 3d 45 7b 9b 3d
       0.06936833 0.03314983 0.053311672 0.07591871
000080 e1 03 3c bd 3f 87 e2 bc 95 bd ad bd b5 77 02 3c
       -0.045902137 -0.027652381 -0.084834255 0.007963111
000090 99 70 12 be 8f 47 9d bd 1f 8c 19 be c1 b7 54 be
       -0.14300765 -0.07679664 -0.14994858 -0.20773222
0000a0 1a 8f 29 3d 5e 51 80 be 58 b7 02 be 85 f8 01 be
       0.041396238 -0.25062078 -0.12765253 -0.12692459
0000b0 b1 78 1c bd f4 ad 38 be 33 f0 4d be 91 67 4a be
       -0.038201038 -0.18035108 -0.2011116 -0.1976607
0000c0 ce d6 a2 bd 0b 7e 25 be bf d2 ec bd bb 8d 33 be
       -0.07951127 -0.16161363 -0.11563634 -0.17534535
0000d0 7b 87 3a be 92 1f b4 be ce 98 f5 bc 56 2d 96 bd
       -0.18215744 -0.35180336 -0.02998009 -0.07332866
0000e0 18 d7 a5 bd d9 b5 34 be 0d 97 96 3c de 07 be be
       -0.080976665 -0.17647494 0.018382574 -0.37115377
0000f0 3b 61 35 bd 30 60 0a be 69 83 27 be 02 92 66 be
       -0.04428218 -0.13513255 -0.16358723 -0.22516635

conv3.weight f4 [128, 64, 3, 3]
000000 59 53 2a 3d 2a 53 28 3e 66 cb 09 be 9e 24 bb bd
       0.041583393 0.16437975 -0.13456497 -0.091378435
000010 71 0a 4a 3d 26 f6 1c bd 0c b0 82 3e ed 77 e4 3d
       0.049326364 -0.038320683 0.25524938 0.111556865
000020 e2 4d 38 be 91 3f 40 3d b0 2d 40 ba 5c 29 09 be
       -0.1799846 0.04693562 -0.0007331027 -0.13394684
000030 b3 2c aa 3d 92 f7 3b 3e e5 ef 0f 3e ae ce 57 bd
       0.08309307 0.1835616 0.14056356 -0.05268734
000040 53 1f 45 3d cf 4f 0f 3e c7 c5 47 3c 1a c3 45 3d
       0.048125576 0.13995288 0.01219315 0.048281766
000050 83 2c 34 be b7 04 6e bd 2b bc ea bc 68 40 f2 3d
       -0.17595105 -0.058109965 -0.028654179 0.11828691
000060 80 79 11 bd 52 19 bf 3d 3e 3d cb 3b ac 0d 17 be
       -0.035516262 0.09331001 0.006202369 -0.14751309
000070 6e 88 3b bd 12 e5 49 bd de e8 51 be 4f b4 ce 3d
       -0.045784406 -0.049290724 -0.20498988 0.10092985
000080 6f c6 63 3d 90 a2 67 3d 5b 14 cd bd 3a 9d ce 3d
       0.055609163 0.056551516 -0.10013648 0.10088582
000090 f4 66 6d be d5 36 a5 3d 86 f3 a8 3d 7c 27 80 bd
       -0.23183805 0.08067099 0.082495734 -0.06257531
0000a0 37 41 76 bd 63 56 95 bd 47 90 94 bc 09 eb 2b bb
       -0.060120787 -0.072918676 -0.018135203 -0.0026232621
0000b0 db cb 48 3e 35 0f bd bd 41 29 c0 bd 90 71 80 bc
       0.19609015 -0.09231416 -0.093828686 -0.01567915
0000c0 0f 79 54 3d 60 62 f8 bd 8c 0d 57 bb d2 ca 47 3b
       0.051873263 -0.121281385 -0.003281447 0.003048588
0000d0 d6 b1 59 bb 35 bb 71 3d bd f6 25 be d3 c6 9e bd
       -0.003321757 0.059016425 -0.16207404 -0.077527665
0000e0 bc 15 78 bd e0 eb fd 3d 1d 0c 07 3b c4 e5 a6 bd
       -0.060567603 0.12398505 0.0020606585 -0.08149293
0000f0 8d a9 26 bd 9f d1 bd 3d 3a 65 7d bd eb cb 0d 3d
       -0.04068904 0.09268498 -0.061864115 0.0346183
000100 22 0e 8e bb 7a 3e ba bb a3 2b 60 bc b7 cb e2 bd
       -0.004335181 -0.0056837173 -0.013682279 -0.11074012
000110 ef bd a7 bd ca fd 85 bd 5c c7 38 bd b7 c8 e2 3c
       -0.08190524 -0.06542547 -0.045112 0.027683599
000120 2e 31 8d 3b f3 85 15 bd 8e fc fe 3c f1 11 ee bc
       0.004308841 -0.036504697 0.031126287 -0.02906129
000130 93 dc 0d be c3 71 af bd f7 89 85 be 09 05 9f bd
       -0.13853674 -0.0856662 -0.2608182 -0.07764632
000140 86 1f c2 bc 9a 9a 66 3d b5 93 9e 3c 71 79 1f 3d
       -0.023696672 0.056299783 0.019357542 0.038934175
000150 91 0b ed bc b3 d1 f3 bd c7 c8 49 be a1 7b c2 3b
       -0.02893618 -0.11905231 -0.19705497 0.005935148
000160 c6 26 67 bd 71 88 0f be 3d 68 72 bb 5b 7b b3 bd
       -0.05643346 -0.14016892 -0.00369884 -0.087637626
000170 c1 3f 89 bd cb 76 ff bc 57 83 98 bd 47 ed 22 be
       -0.06701613 -0.031184575 -0.07446926 -0.15910827
000180 11 cc e9 3c 0f 28 54 be 12 30 30 3d b1 7c 40 3d
       0.02853969 -0.20718406 0.043014593 0.046993915
000190 de 3c 39 3c 7b b4 dd 3d d5 d9 2a 3c a9 7e a1 bc
       0.011306016 0.108254395 0.010427912 -0.019713717
0001a0 9a 81 23 be f9 08 0f 3e dd 64 61 bc b4 07 a2 bd
       -0.15967408 0.13968267 -0.013756958 -0.079116255
0001b0 00 a8 c6 3d 2b 6e 02 bd 46 84 70 bb 05 c0 02 3d
       0.09700012 -0.031843346 -0.0036699935 0.031921405
0001c0 68 ba c7 3c ee d8 14 bc 47 17 ba 3d 1e e6 18 3e
       0.024380878 -0.009084923 0.09086471 0.14931533
0001d0 46 8d c7 bc 05 1a fa 3d cc 80 3c bd a8 b5 de bd
       -0.024359357 0.12211994 -0.046021268 -0.10874492
0001e0 24 be cf 3d 9c ce 75 3d e0 55 0b bc 37 db 93 bd
       0.10143688 0.06001149 -0.008504361 -0.07219546
0001f0 50 a7 0b bd 82 ff 63 3d e0 52 31 bd 01 b0 c4 bd
       -0.03409511 0.055663593 -0.043291926 -0.096038826
000200 86 08 5d 3b 2f c0 a6 bc 90 51 b0 bb 5d 50 28 be
       0.0033727004 -0.020355312 -0.0053808168 -0.16436906
000210 8a fe ed bd 9b f4 b7 3c a0 5c b6 3c d0 27 af bb
       -0.11620815 0.022455504 0.022260964 -0.005345322
000220 4e cb 9d 3d e0 a6 1d bc 03 44 ff bc f5 de d6 3c
       0.07704793 -0.009622306 -0.03116036 0.026229361
000230 e3 86 20 3e e8 6b 1b bd 62 96 64 bb d7 44 23 bc
       0.15676455 -0.037944704 -0.0034879674 -0.009965143
000240 0a 8b 04 be 6f 85 fc 3c db 73 f3 bc 1a 61 25 3d
       -0.12943664 0.030825345 -0.02971833 0.040375806
000250 4c e8 25 be 81 fe 10 be ed 2a 99 3d 1f fc c2 3d
       -0.16201895 -0.14159586 0.074788906 0.095207445
000260 58 c9 d9 3d 18 b7 a4 3d 17 a8 03 3e 3e 5c 0b be
       0.106341064 0.08042735 0.1285709 -0.13609406
000270 9b 2d d8 bd a4 33 86 3c 55 a4 e3 bd af b9 d2 bd
       -0.105555736 0.016382046 -0.11115328 -0.102893226
000280 20 35 93 bd e8 c1 8b bb 64 72 e8 bd 74 03 c0 bd
       -0.07187867 -0.004265059 -0.11349943 -0.09375659
000290 02 e8 d2 bd 1e ab c1 3d 15 b2 a0 3c 82 f9 07 be
       -0.10298158 0.09456466 0.019616166 -0.13278773
0002a0 cf d0 2a 3e b0 a4 d1 3d b6 14 1f be 79 fe a3 3d
       0.16681217 0.1023649 -0.15535244 0.08007521
0002b0 c7 e2 ac 3d 01 de 00 bd 44 86 84 3d fe e2 27 bd
       0.08441692 -0.03146172 0.06470922 -0.04098796
0002c0 dd e8 cf bd 70 9f d4 3d 93 dd a7 3c 7e 24 d0 3a
       -0.10151837 0.10381973 0.020491397 0.0015880016
0002d0 f5 fe 1c be 1f 51 76 bd 75 74 2b 3d 14 9f d4 ba
       -0.15331633 -0.060135957 0.04185911 -0.0016221725
0002e0 99 bf 8b 3d 77 17 39 3c 5e 7b 34 bd b3 a4 0e bc
       0.06823654 0.011297098 -0.044062965 -0.00870626
0002f0 f6 73 07 be 12 79 06 be 15 3d b1 3d 82 bf bc bd
       -0.1322783 -0.13132122 0.086542286 -0.09216215
000300 ff c0 1c 3e c8 8f 9e bd 36 b8 81 3d 20 b8 f7 bd
       0.15307997 -0.07742268 0.063339636 -0.12095666
000310 62 81 80 3e 8d b1 a2 3c c1 f3 f0 3d 68 36 9f 3d
       0.2509871 0.019860053 0.11765242 0.07774049
000320 9c 31 ba 3c 9c 7e 27 3d 62 b0 d5 bc 94 18 21 bd
       0.022728734 0.04089223 -0.026085082 -0.03933008
000330 31 6b 0b 3e e5 a3 79 3d b0 42 1a 3e 77 1d 39 bd
       0.13615109 0.060947318 0.15064502 -0.045194115
000340 b0 62 47 3d c1 56 0a be 10 d4 5a be ec 72 49 bc
       0.0486781 -0.13509656 -0.21369958 -0.012295466
000350 be 5c 36 be 97 69 63 3e 1c d0 43 bd 0b 5d c7 3d
       -0.17808816 0.22208248 -0.04780589 0.097345434
000360 f2 18 13 be 58 2e ed 3d 27 e4 09 bd ae b4 57 bb
       -0.14364985 0.11581105 -0.03366485 -0.003291409
000370 4c 64 4a 3e 18 93 9f 3e b6 c2 23 bd d4 e6 e5 3d
       0.19764823 0.3116691 -0.039980613 0.112256676
000380 a4 7a 4c 3d b2 d1 94 bd 19 9a af bd c3 a6 32 3d
       0.049921647 -0.07266559 -0.08574314 0.043616068
000390 90 55 f8 3c 9a c2 62 bc 8a 33 2f be d8 6d 9a 3d
       0.030314237 -0.013840342 -0.17109504 0.07540482
0003a0 d0 29 a4 3d 6a 22 d5 3a aa c9 17 be 5b 59 00 bd
       0.080157876 0.0016260867 -0.14823022 -0.031335216
0003b0 be 4d 0c bd 05 27 8c bd ad fd 0e 3d 35 18 af bb
       -0.03425383 -0.0684338 0.034909893 -0.005343462
0003c0 be 72 4a bd 2a 6c 1d bd 39 aa bb 3d 2a 39 9e bc
       -0.049425833 -0.03843323 0.09163327 -0.019314367
0003d0 d9 d7 a9 bc 77 6a fb bd 94 80 28 be 02 4d 68 bc
       -0.020732807 -0.12276166 -0.16455299 -0.014178516
0003e0 0f 36 2a bd 42 c9 99 be 0f d2 09 be 86 c5 c5 bc
       -0.04155546 -0.3003636 -0.13459037 -0.024142038
0003f0 8e d0 23 be 3f f9 e5 bd 7c 86 02 3d 15 1e 83 bd
       -0.15997526 -0.112291805 0.031866536 -0.06402222

conv3.bias f4 [128]
000000 21 b6 e8 bc fb 81 21 be c9 75 9e bd a4 30 f3 bd
       -0.028407158 -0.1577224 -0.077373095 -0.11874512
000010 2a 78 f3 bd a9 d8 9d bd 55 1f 7b be 5f 8b 6d be
       -0.11888154 -0.0770734 -0.24523671 -0.23197697
000020 dd 1f 36 be b0 4e 20 be 1e ed 2c be 42 22 2b be
       -0.17785592 -0.15655017 -0.16887328 -0.16712287
000030 4e e3 3a be e5 0c 74 be e0 4e a0 bc 6f 8f cd bd
       -0.18250772 -0.23833044 -0.01956886 -0.100371234
000040 de a3 b5 bd 9e 2e 3c be b8 eb 07 be 8e 8d 70 be
       -0.08869146 -0.18377158 -0.13273513 -0.23491499
000050 f6 c8 c3 bd b8 d1 56 bd b1 5d 3f be 4c b3 ae bd
       -0.09559815 -0.052446097 -0.18688084 -0.08530292
000060 87 ce 7d be ed 25 5e be 47 84 53 be bc a8 9f bd
       -0.24785815 -0.21694155 -0.20655929 -0.077958554
000070 d6 74 61 be 53 fa 29 be 66 bd 30 be e7 81 68 bd
       -0.22017226 -0.16599397 -0.1725975 -0.05676451
000080 ee 9e 60 be f5 28 4f be e8 73 f3 bd 12 0d 3a 3d
       -0.21935627 -0.20230468 -0.11887342 0.04542262
000090 d0 57 6a be fd f3 3c be 4f 06 8b bd a5 45 19 be
       -0.2288506 -0.18452449 -0.06788313 -0.14967974
0000a0 31 46 fb bd 10 5c 32 be b7 7f 62 be 65 d5 2c be
       -0.12269247 -0.17417932 -0.22119032 -0.16878279
0000b0 14 63 15 be f5 f7 49 bd 16 47 d8 bd 6e 2a be bd
       -0.14588577 -0.049308736 -0.105604336 -0.092854366
0000c0 94 64 d7 bd ea e4 72 be 30 b4 40 be f3 e8 dd bd
       -0.10517231 -0.23720136 -0.18818736 -0.10835447
0000d0 44 dc 11 be 96 0c 80 bd 57 92 15 be de 62 11 be
       -0.14244181 -0.062524006 -0.14606605 -0.14197871
0000e0 e5 de 9e bd 15 66 6e be 14 cc 0b be 73 7c e7 bd
       -0.077573575 -0.23281129 -0.13652068 -0.11303034
0000f0 db 4c c9 bd c5 75 7b be 8c 48 57 be f6 5f 58 be
       -0.09829112 -0.24556644 -0.21023768 -0.21130356
000100 bf ae 46 be 39 c9 08 be 16 3f 08 be 2b cf f2 bd
       -0.19402598 -0.1335801 -0.13305315 -0.118559204
000110 c5 d7 34 be 3a ed 5b 3d 12 f0 6d be aa 95 12 be
       -0.17660435 0.053693034 -0.23236111 -0.14314905
000120 73 4a e6 bd 11 5e 57 be ac 12 86 bd c9 8e 95 bd
       -0.11244669 -0.21031977 -0.0654653 -0.07302625
000130 f8 7c 11 be 18 f5 51 be 1f 14 16 be 48 d0 ee bd
       -0.14207828 -0.20503652 -0.14656113 -0.1166082
000140 c4 48 1b be 64 aa 75 be c9 ba 77 be 76 e2 ea 3b
       -0.15164477 -0.2399078 -0.24192347 0.0071681095
000150 84 86 1b be be c4 15 be e4 35 c4 bd 5e e3 ac bd
       -0.15188032 -0.14625832 -0.09580591 -0.08441804
000160 5e dc 74 bd 0a 79 50 be a5 6a 0c be 13 95 1c be
       -0.05978047 -0.20358673 -0.13712557 -0.15291242
000170 b6 c5 ac 3c 3e 7d db bc 37 79 ef bd 39 a5 c3 bd
       0.02109037 -0.026793119 -0.11693042 -0.09552998
000180 9f 68 0d be 9b af 39 bd e7 03 86 be 29 b2 ad bd
       -0.13809441 -0.045333486 -0.26174852 -0.08481247
000190 70 e3 05 be dc 40 39 be db 29 74 3d b9 94 cb bd
       -0.13075042 -0.18091148 0.05961023 -0.09940476
0001a0 ea b1 eb bd 40 72 4a be 46 ad 3f be 9a 2a 38 be
       -0.11508544 -0.19770145 -0.18718442 -0.17985001
0001b0 8b 55 8a be 3b 69 21 be c6 9c 64 be db 2e 48 be
       -0.2701839 -0.15762798 -0.2232543 -0.19549124
0001c0 28 af 06 3c f3 31 32 be ba 81 2f be 22 f8 5c be
       0.008220471 -0.17401867 -0.1713933 -0.2157903
0001d0 b1 02 82 be cc e9 0b be 82 39 26 be 25 81 13 be
       -0.25392678 -0.13663405 -0.16232875 -0.14404733
0001e0 de c6 41 bc 36 9a 2c be 50 f3 10 be 32 71 1a bd
       -0.011827199 -0.16855702 -0.14155316 -0.037705608
0001f0 d4 c2 41 be e9 80 4f be f5 33 6e be fa bb fc bd
       -0.18921977 -0.20264019 -0.23262008 -0.12340541

bn1.weight f4 [32]
000000 9a 51 04 3f c6 e4 1c 3f 2c e9 2e 3f 9b 6d 50 3f
       0.51687014 0.6128658 0.6832454 0.81417245
000010 b8 f4 3c 3f 0a 28 ed 3e a2 65 3a 3f fd a6 25 3f
       0.7381091 0.4631961 0.7281133 0.6470793
000020 14 d9 4d 3f a2 2c fd 3e 8c e9 2b 3f cc 1f 53 3f
       0.8040936 0.49448115 0.6715324 0.82470393
000030 0c ad d9 3e 9b 0b 1b 3f a2 43 5a 3f d4 56 4b 3f
       0.42514837 0.60564584 0.8525945 0.79429364
000040 14 87 3c 3f 0f 2f 48 3f 53 28 4b 3f 30 92 2d 3f
       0.7364361 0.78196806 0.79358405 0.6780119
000050 d6 b3 4e 3f c8 d3 42 3f e3 62 e7 3e d9 e2 0b 3f
       0.8074316 0.761044 0.45192632 0.5464302
000060 29 33 5c 3f b0 9a 9d 3e d4 c7 4b 3f 4b 3f 58 3f
       0.86015564 0.3078208 0.7960179 0.8447158
000070 58 44 43 3f 1b f9 4b 3f 59 35 62 3f 47 5e 33 3f
       0.7627616 0.7967698 0.8836265 0.7006573

bn1.bias f4 [32]
000000 81 54 e6 3d f6 3a 76 3e a5 d8 ed 3c ac 21 39 3e
       0.112465866 0.2404593 0.029033968 0.18079251
000010 ce 88 0c bd a8 bb f2 bc af 3d 11 3c 46 0c 0c 3d
       -0.034310155 -0.029630497 0.008864804 0.034191392
000020 b0 be 85 bd 7a ed 59 bc a0 06 94 3d d6 e3 b1 3d
       -0.065305114 -0.013301248 0.07227826 0.086860344
000030 ea d9 33 3d 25 cd 21 be 8f 62 0c 3e d2 8d 0e 3d
       0.04390899 -0.15800913 0.13709472 0.03480322
000040 d0 a4 12 bd c4 96 90 bd 8f 6a 93 bd c0 f2 cc bd
       -0.03580171 -0.07060006 -0.07198059 -0.100072384
000050 62 2f 51 3c 23 1e 71 3d cd 48 de 3b 95 36 67 3e
       0.012767645 0.05886663 0.006783581 0.22579415
000060 8d 0c fc 3c 19 be 8e bc de 73 1f 3e cd 5f 90 be
       0.030767703 -0.01742463 0.15571544 -0.2819809
000070 24 25 99 3d 61 84 72 be 44 68 8c bd 11 05 99 bd
       0.07477787 -0.23683311 -0.068558246 -0.074716695

bn1.running_mean f4 [32]
000000 2a d2 20 3e 06 03 f3 3e 04 49 10 3d ca 78 03 3e
       0.15705171 0.47463244 0.035225883 0.12839046
000010 0b 3d 11 3e a9 89 63 3e 6f af 1d 3e 77 0b 85 3e
       0.14183442 0.22220482 0.15398954 0.2598531
000020 68 03 35 3d 1d 0d ab 3e 59 da 9a 3e 7f d1 4f 3d
       0.0441927 0.33408442 0.3024471 0.0507369
000030 d9 a4 21 3e 8a 7e a7 3e 9e 9e 3e 3e 86 17 f9 3c
       0.1578554 0.3271373 0.18615195 0.030406725
000040 35 e8 cb 3e ab 08 17 3e d6 43 c2 3e f8 a3 b0 3d
       0.39825597 0.147494 0.3794238 0.086250246
000050 d8 a4 82 3d 4e e9 2e 3e c9 53 19 3e 45 4c da 3d
       0.06379098 0.17081186 0.14973368 0.106590785
000060 d0 ee 5a 3e 15 c3 58 3e e4 6e a5 3d d8 36 d5 3d
       0.21380162 0.21168168 0.08077791 0.10410851
000070 06 9b 15 3e 87 6c 93 3d e1 7d 80 3d b1 66 68 3e
       0.14609918 0.07198434 0.062740095 0.22695424

bn1.running_var f4 [32]
000000 2e 94 e2 3d 98 d2 35 3f e2 93 6f 3c 27 dc e2 3d
       0.11063419 0.71024466 0.01462266 0.11077147
000010 6e c5 90 3c c6 35 11 3d cd ef 97 3c 5f 7a 84 3e
       0.017672267 0.035451673 0.018546963 0.25874612
000020 d6 72 a2 3c df 68 14 3e 43 96 ad 3e 50 b9 b9 3c
       0.019830149 0.1449313 0.33903703 0.022671372
000030 f5 26 bb 3d 20 bd 6d 3d 3b e7 2d 3e 8d fd 3c 3c
       0.0913829 0.05804169 0.16982739 0.011535061
000040 fb 07 81 3d 81 43 f6 3c 18 45 a7 3d c6 18 bd 3c
       0.0630035 0.030061485 0.081674755 0.023083102
000050 bb 26 0e 3d 1a 8d d7 3c 00 cd e3 3c 13 4a 6b 3d
       0.034704905 0.0263124 0.027807713 0.05744369
000060 e3 87 f6 3c 5d 4d c4 3c 1c b1 20 3d 29 37 99 3c
       0.030094093 0.023962671 0.039231405 0.01870306
000070 61 27 e6 3d 28 78 c4 3c 2f 7d ab 3c 4c 0e 55 3d
       0.1123798 0.023983076 0.020933716 0.052015588

bn2.weight f4 [64]
000000 36 68 5c 3f 84 18 1f 3f 73 2f 1f 3f 9e 2c 3e 3f
       0.86096513 0.6214678 0.62181777 0.7428683
000010 2d 51 36 3f 93 78 51 3f 1c 4c 30 3f 76 f1 2e 3f
       0.71217614 0.81824607 0.68866134 0.6833719
000020 97 cb 2e 3f 9b ab fc 3e 1b 46 54 3f 38 b2 34 3f
       0.68279403 0.49349675 0.8291947 0.7058444
000030 c0 1f 85 3f 8e 78 1d 3f b2 10 32 3f cd 21 3d 3f
       1.0400314 0.61512077 0.69556725 0.738797
000040 b0 b8 53 3f 50 5a 55 3f 5e 60 41 3f 93 7b 56 3f
       0.82703686 0.8334093 0.7553767 0.8378231
000050 c7 e6 30 3f bc 9d 64 3f 05 13 22 3f f9 4a 71 3f
       0.6910214 0.89303184 0.6331027 0.94255024
000060 29 7e 5c 3f 19 a6 63 3f 90 a9 11 3f 5e 5a 40 3f
       0.86130005 0.8892532 0.56899357 0.7513789
000070 c3 b0 06 3f 62 97 0b 3f f4 89 f2 3e 54 e8 43 3f
       0.52613467 0.54527867 0.47370875 0.7652638
000080 7b fd 55 3f 04 c1 1d 3f 67 2e 6a 3f 56 bb 3f 3f
       0.83589906 0.61622643 0.91477054 0.74895227
000090 04 57 42 3f a5 5a 36 3f ac 0b 1a 3f 86 fe 5a 3f
       0.75914025 0.7123206 0.6017406 0.8554462
0000a0 72 38 29 3f be 15 35 3f e3 72 69 3f c7 5c 4f 3f
       0.66101754 0.707363 0.9119093 0.8100094
0000b0 9c 37 39 3f a6 66 27 3f 36 f2 2e 3f 1f ba 4e 3f
       0.7235048 0.65391004 0.68338335 0.8075275
0000c0 2f 71 43 3f 2d 3c 41 3f 5e 7c 30 3f be 01 45 3f
       0.7634458 0.75482446 0.6893977 0.76955783
0000d0 ea 33 55 3f 64 dc 54 3f 22 95 61 3f b7 35 25 3f
       0.8328234 0.8314879 0.88118184 0.6453509
0000e0 cf ea 3d 3f 7d 47 4a 3f 3e 1f 45 3f 03 8c 32 3f
       0.74186414 0.7901533 0.77000797 0.6974489
0000f0 d4 10 2e 3f 48 da 51 3f 35 96 5d 3f 7d 06 47 3f
       0.6799443 0.81973696 0.8655732 0.77744275

bn2.bias f4 [64]
000000 e7 55 00 3e bf 8e 96 3d e3 8c 26 bb fd 78 0b 3e
       0.12532769 0.073514454 -0.0025413565 0.13620372
000010 39 60 09 3e b1 2d 0e 3e 65 07 f3 3d 9e 06 63 3e
       0.13415612 0.13884617 0.11866645 0.22170493
000020 8a 74 0a 3d b1 ff 19 3e 4c 7d 99 3b e3 95 84 3e
       0.033802547 0.15038945 0.004684126 0.25895604
000030 de c6 20 bd 8e cb 10 3d f7 37 a0 3d 33 10 a8 3c
       -0.039252155 0.035350375 0.078231744 0.020515537
000040 a8 9e 9c 3e a5 f7 a4 3d a3 f8 52 3c 1d 27 15 3d
       0.30589795 0.08055047 0.012876662 0.036414254
000050 9e 3f d2 3d ec 15 77 3b 2e 5b 17 3e 89 fd e3 bc
       0.1026604 0.0037702275 0.14780876 -0.027830856
000060 5c a0 59 3c 7f 76 2b 3e 80 a0 be 3d 4e 28 29 3d
       0.013282862 0.16744421 0.09307957 0.041298203
000070 c5 e0 67 3d bb eb cd 3c fd 40 10 3d e0 10 76 3d
       0.05661084 0.02513682 0.035218228 0.060074687
000080 d5 66 57 bd f3 21 ab 3d 83 85 19 bb cc 2f cc 3d
       -0.052588303 0.08356085 -0.0023425526 0.09970054
000090 7b 80 db 3c 7a cb 11 bd db 08 d0 3c 0c f3 c0 3d
       0.026794663 -0.03559444 0.025394848 0.094213575
0000a0 c0 26 92 bc 50 8a dc 3d a9 3e 14 bd 57 75 d9 3d
       -0.017840743 0.107685685 -0.03619257 0.10618084
0000b0 cd 37 bb 3d b2 ac 55 bb 34 fd 06 3e e9 02 4c 3d
       0.091415025 -0.0032604155 0.13182527 0.049807463
0000c0 5c fb bd ba 32 7f 5c bd ed 29 a5 3d ad a7 5c 3d
       -0.0014494467 -0.05383224 0.08064637 0.053870846
0000d0 3e 6a 82 3d e1 d0 32 3e de 1e 28 3d 16 86 8c bd
       0.0636792 0.17462493 0.041045062 -0.06861512
0000e0 f7 bf df bd fe 58 bd 3c 6f 26 b7 3c be ba b9 3d
       -0.10925286 0.023113724 0.022357194 0.09068821
0000f0 42 fd 9d 3d aa bc 84 bd a7 93 09 3c 17 12 c5 3d
       0.07714321 -0.06481297 0.0083970195 0.09622591

bn2.running_mean f4 [64]
000000 e5 c8 46 3f 98 65 ce 3e 0d 8b 17 3f 37 83 cd 3e
       0.7765029 0.40311885 0.5919655 0.4013917
000010 74 0f 16 3f 77 c3 40 3f 90 61 1d 3f a1 e3 29 3f
       0.5861733 0.75298256 0.61476994 0.6636296
000020 5b 5d a2 3e 3f d8 92 3f 73 4b b6 3e b6 58 54 3f
       0.3171185 1.1472243 0.35604438 0.8294786
000030 22 80 d7 3e 44 58 92 3f dc 0c 3e 3f 14 df 18 3f
       0.42089945 1.1433187 0.7423837 0.5971539
000040 09 a0 1f 3f cf ee 68 3f 5b 0f 1f 3f a0 bc 31 3f
       0.6235357 0.90989393 0.62132806 0.69428444
000050 fb 00 87 3f 4e 41 a5 3e d4 2e 5e 3f 07 da 10 3f
       1.0547174 0.32276386 0.86790204 0.56582683
000060 43 da 4e 3f f7 fa 3c 3f e6 94 b4 3f 7d e5 0e 3f
       0.8080179 0.7382044 1.410794 0.5581892
000070 c7 f1 95 3f 5e 55 95 3f 25 98 8b 3f db 5b 8b 3f
       1.171441 1.1666677 1.0905806 1.0887407
000080 4e e3 12 3f 71 0b 6e 3f ea 6d 2b 3f 4a 4d 4c 3f
       0.5737809 0.9298621 0.6696459 0.79805434
000090 7b 1b 30 3f db c0 5c 3f 8f 56 37 3f 7b 5a dc 3e
       0.6879193 0.86231774 0.7161645 0.4303778
0000a0 09 b7 56 3f 6e 62 2c 3f 2a a9 30 3f 6c 61 28 3f
       0.8387304 0.6733769 0.69008124 0.65773654
0000b0 a4 97 34 3f 00 6f 2b 3f 29 5e 3c 3f 31 b9 18 3f
       0.70543885 0.6696625 0.73581177 0.5965758
0000c0 ea ee 56 3f bd 36 b8 3e 12 74 0d 3f f8 1a c6 3e
       0.83958304 0.35979262 0.55255234 0.3869245
0000d0 df a3 46 3f 51 50 05 3f d0 aa 48 3f fd 69 4c 3f
       0.775938 0.5207568 0.7838564 0.79849225
0000e0 45 81 c1 3e f5 ae e7 3e 8c a9 3c 3f 65 f6 3d 3f
       0.37793937 0.4525067 0.7369621 0.74204093
0000f0 ba e5 50 3f 82 59 e5 3e f5 f5 a0 3e cf 51 02 3f
       0.81600535 0.44794852 0.3143765 0.5090608

bn2.running_var f4 [64]
000000 17 27 8c 3f 28 39 99 3f 0b 3c b0 3f f9 50 ba 3f
       1.0949429 1.1970568 1.3768324 1.4555961
000010 a4 37 2a 3f 8b 27 a2 3f 53 36 1f 40 a2 9d 43 3f
       0.6649115 1.2668318 2.4876907 0.76412404
000020 58 b4 24 3f 67 86 b6 3f 88 e6 4c 3f 22 31 8f 3f
       0.6433768 1.4259766 0.8003926 1.1186869
000030 d2 c4 b1 3f 99 10 69 40 28 74 93 3f ea a7 f7 3f
       1.388819 3.641638 1.1519823 1.9348118
000040 d1 5a 35 3f a4 a7 9f 3f 77 35 5f 3f 36 a2 5a 3f
       0.708417 1.2473035 0.87190956 0.85403764
000050 dc f1 6f 40 72 6e 6b 3f b5 5b a7 3f 67 52 3d 3f
       3.749137 0.919654 1.3074862 0.7395386
000060 66 b0 19 40 28 15 87 3f 09 e8 51 40 e4 33 d3 3f
       2.4013915 1.0553331 3.2797873 1.6500211
000070 db df 2a 40 da bf 36 40 24 c0 f0 3f e2 54 04 40
       2.669913 2.8554597 1.8808637 2.0676808
000080 a8 c7 ee 3f c0 2c d7 3f 3e bf b2 3f f0 ec 30 40
       1.865468 1.6810532 1.3964612 2.7644615
000090 c1 89 03 40 9d d8 dc 3f 66 c4 08 40 9e b6 ae 3f
       2.0552828 1.7253605 2.1369872 1.364948
0000a0 a1 83 d5 3f 0e 68 0b 40 40 0c a6 3f 94 26 56 3f
       1.6680795 2.178226 1.2972488 0.83652616
0000b0 5b 15 87 3f 2e e9 e0 3f dc b6 92 3f 15 fc 07 40
       1.0553392 1.7571161 1.1462054 2.1247609
0000c0 4e 22 06 40 d7 b1 8a 3f 14 e9 fe 3f 26 63 92 3f
       2.0958438 1.0835522 1.991488 1.1436508
0000d0 a7 00 c7 3f 75 16 f3 3f 84 36 b0 3f e4 45 c5 3f
       1.5547074 1.8991228 1.3766637 1.5411954
0000e0 a1 11 2d 3f 72 13 a9 3f c1 8c f2 3f 31 0d 3d 40
       0.67605025 1.3209059 1.8949205 2.9539301
0000f0 57 5c 09 40 2a c7 c4 3f bc 64 59 3f 35 4a de 3f
       2.146261 1.537328 0.84919333 1.7366396

bn3.weight f4 [128]
000000 a3 37 2c 3f b3 cb 20 3f 97 a5 39 3f 04 21 46 3f
       0.67272395 0.6281082 0.72518295 0.7739413
000010 04 1e 5e 3f 4b 7c 66 3f c5 3d 72 3f ed 05 7c 3f
       0.8676455 0.90033406 0.946255 0.9844654
000020 67 8e 6e 3f 88 37 35 3f 0e 7d 56 3f 0f 0b 58 3f
       0.9318604 0.7078786 0.8378457 0.84391874
000030 3c 0e 34 3f d2 b8 40 3f cf b6 5a 3f f8 cb 38 3f
       0.7033422 0.75282013 0.85435194 0.7218623
000040 78 4b 5c 3f 70 bb 3c 3f 05 94 07 3f 78 1d 3e 3f
       0.86052656 0.73723507 0.52960235 0.74263716
000050 57 90 68 3f 21 f9 3d 3f 00 16 73 3f 74 4d 87 3f
       0.90845245 0.74208266 0.94955444 1.0570512
000060 5a ad 4d 3f 7a 9c 2f 3f de 2c 4a 3f 89 3f 63 3f
       0.8034264 0.6859814 0.7897471 0.8876882
000070 36 0d 52 3f 01 5d 48 3f 31 f1 58 3f 86 06 56 3f
       0.8205141 0.7826691 0.8474303 0.83603704
000080 8c 44 3c 3f 05 30 55 3f 98 74 05 3f bd a6 0c 3f
       0.73542094 0.83276397 0.5213103 0.5494192
000090 f9 45 7b 3f 36 32 25 3f 10 f9 66 3f 5d e1 3d 3f
       0.98153645 0.6452974 0.9022379 0.74172
0000a0 fa bf 29 3f bf c1 74 3f 64 ec 2b 3f 73 c1 1c 3f
       0.6630856 0.95608133 0.6715758 0.6123268
0000b0 a4 bf 49 3f 66 41 51 3f a4 80 41 3f e5 f7 62 3f
       0.78808045 0.81740415 0.75586915 0.8865951
0000c0 bb 11 88 3f 90 5a 53 3f 92 2a 5a 3f 42 e4 68 3f
       1.0630411 0.8256006 0.8522121 0.90973294
0000d0 f3 28 4f 3f 9a 7d 3c 3f e8 9b 42 3f 47 b5 6c 3f
       0.8092186 0.7362915 0.76019144 0.9246411
0000e0 0a 07 67 3f 95 db 5a 3f 8f f5 7c 3f 06 9e 44 3f
       0.90245116 0.85491306 0.9881219 0.76803625
0000f0 9a 21 5c 3f db 08 56 3f 0c 18 7a 3f 7a 14 4b 3f
       0.8598877 0.8360726 0.9769294 0.7932812
000100 7c 57 7b 3f d0 14 84 3f c3 54 50 3f e1 c5 73 3f
       0.98180366 1.0318851 0.81379336 0.95223814
000110 fe 1d 64 3f ba 03 37 3f f2 48 66 3f 70 1a 43 3f
       0.89108264 0.7149006 0.89955056 0.76212215
000120 6c 51 6e 3f 9e 12 6a 3f 9a f9 75 3f 4a 50 57 3f
       0.9309299 0.9143466 0.96083987 0.84106886
000130 df db 45 3f e8 d3 5d 3f 0d 4f 65 3f 10 e2 5c 3f
       0.7728862 0.8665147 0.89573747 0.86282444
000140 61 3d 44 3f df bb 71 3f bd 7e 72 3f 95 7b 6d 3f
       0.76656157 0.94427294 0.9472464 0.92766696
000150 6a 51 66 3f 63 b1 4f 3f c5 01 80 3f 90 c0 60 3f
       0.8996798 0.81130046 1.000054 0.8779383
000160 cc 72 60 3f 4d a7 44 3f 12 1b 56 3f 2b f3 74 3f
       0.87675166 0.7681778 0.83635056 0.95683545
000170 02 1f 33 3f 3c ce 54 3f 85 32 20 3f b8 5a 87 3f
       0.6996919 0.8312719 0.62577087 1.057456
000180 47 f6 21 3f c2 3b 45 3f 52 4b 5f 3f f4 6d 4e 3f
       0.63266414 0.7704431 0.87224305 0.80636525
000190 75 66 53 3f 66 aa 51 3f 5d 46 e0 3e 94 a5 37 3f
       0.8257821 0.8190063 0.43803683 0.7173703
0001a0 5a 80 79 3f 3e 12 25 3f e0 e9 5f 3f 56 49 53 3f
       0.97461474 0.6448096 0.8746624 0.82533777
0001b0 e2 d2 69 3f bb 33 80 3f 5e db 6b 3f 6e 2c 42 3f
       0.91337407 1.0015787 0.921316 0.75849044
0001c0 f3 a1 53 3f 50 10 70 3f ca 71 3d 3f 3c 18 69 3f
       0.8266899 0.9377489 0.74001753 0.91052604
0001d0 87 10 68 3f 79 47 43 3f 2d f5 30 3f fc d7 5c 3f
       0.9065022 0.76280934 0.6912411 0.86267066
0001e0 02 a8 28 3f 4a b4 1c 3f 74 ce 69 3f 72 14 3b 3f
       0.6588136 0.612126 0.9133065 0.7307807
0001f0 ce 5e 63 3f a2 15 7b 3f 0c a2 3c 3f 89 88 39 3f
       0.88816535 0.98079884 0.73684764 0.7247396

bn3.bias f4 [128]
000000 ac a2 b3 3d cf 01 e9 3d 2e 94 71 3e 98 8b 96 bd
       0.087712616 0.11377298 0.23591682 -0.07350844
000010 17 ae 32 3d 58 2d a5 3d e3 6d b0 bd 92 ca 11 3d
       0.043623056 0.08065289 -0.08614709 0.035593577
000020 0c 52 55 3d 10 15 80 3d 5e 89 0a 3d e2 17 80 bd
       0.0520802 0.06254017 0.03382241 -0.06254555
000030 8d 67 87 bd 7b 52 eb 3c f8 60 09 bd 6c 3d 78 bd
       -0.066115476 0.028725853 -0.033539742 -0.06060545
000040 5c 4e 8e 3d 74 1f 25 3d ca 28 00 be c8 64 4f bd
       0.069485396 0.0403132 -0.1251556 -0.050633222
000050 99 7e 96 bd 10 61 5c 3e 53 93 bb bd d2 29 f8 3d
       -0.07348365 0.21521401 -0.09158959 0.121173516
000060 e6 0b 2d bc cf 6a a0 3d 5e 6f 06 3e 7f be 4b bb
       -0.010561919 0.07832872 0.1312842 -0.0031088886
000070 76 c4 74 3d 01 37 ca 3c 5a 22 86 bd bf 36 83 3d
       0.059757672 0.024684431 -0.06549521 0.06406926
000080 09 96 0c bd c4 d2 6a bd 69 8d 7d 3d e9 10 05 be
       -0.034322772 -0.057329908 0.061902437 -0.12994732
000090 ba af fd bd 81 4e e1 3c 77 9d 99 3d cc 6b f3 3c
       -0.12387033 0.027503254 0.07500737 0.029714487
0000a0 ae 1d ce 3d a6 66 38 3e 8e fb c9 bd da a3 c9 3c
       0.10064255 0.18007907 -0.098624334 0.024614263
0000b0 ed 53 8d bc 17 c8 6b 3d ab 8b fd 3d 96 5f 8f 3c
       -0.017251933 0.057563867 0.12380155 0.017501634
0000c0 38 e5 a7 3d b8 31 6f bb 7c c8 d2 3c c1 14 e7 bd
       0.08198017 -0.003649814 0.025730364 -0.11283255
0000d0 8b d7 da bc 47 32 99 3d 02 ce bb bc bb ef 8c 3c
       -0.026714107 0.07480293 -0.02292538 0.017204156
0000e0 d3 b6 88 3d 6e bb 08 3e 94 09 fa 3c d4 e9 c0 3a
       0.06675496 0.13352749 0.030522145 0.0014718124
0000f0 4e f1 97 3d 6f 2c 08 be 9e 6d b6 bc 05 16 02 3c
       0.07419072 -0.132982 -0.022269066 0.00793982
000100 72 85 a7 bd f4 bd d1 3c 57 b3 e6 bd a2 03 94 bb
       -0.081797495 0.025603272 -0.11264675 -0.0045170346
000110 ff 14 82 3d fc ae bd 3c 8a 98 e6 bd f0 99 2f 3d
       0.06351661 0.023154728 -0.11259563 0.042871416
000120 d9 12 c6 3d 96 cb 9f bc ef 7f b7 3c bc ec fe 3d
       0.09671564 -0.019506257 0.02239987 0.12447497
000130 41 1a 2a 3e 0f 5b d8 bd b6 81 b9 3d 37 20 67 3e
       0.16611578 -0.10564243 0.090579435 0.22570883
000140 57 07 20 3d cc 6e 3c 3c 2f 27 c9 bd 7b 2f 22 bc
       0.0390695 0.011501025 -0.09821927 -0.009899016
000150 85 b7 b7 bc 65 e8 55 3d 0c 9f d4 bc 88 e4 8c 3d
       -0.022426376 0.05222358 -0.025954746 0.068795264
000160 5e 0b 51 3b 1a 3d 97 bd 4f 72 c1 bc dc 11 10 be
       0.0031897645 -0.07384701 -0.023614077 -0.14069313
000170 4f b9 37 3d 8a 86 86 3d c4 d0 56 3d 7e 31 e9 bc
       0.04485446 0.0656863 0.05244519 -0.028465983
000180 be 96 be 3d 16 23 cf 3d 75 3b 81 bc d9 b1 14 3d
       0.093060955 0.10114114 -0.015775422 0.03630242
000190 22 2f 59 bc bd 16 0a bd 3b 1c 88 3d 45 0d fe 3c
       -0.013255866 -0.03371309 0.066460095 0.031012187
0001a0 e1 09 3e 3c de 6c 15 3e 33 c2 17 3d d6 29 b3 bd
       0.011599035 0.14592311 0.037050437 -0.08748214
0001b0 6a e3 b5 bd e2 61 fa bc 60 f2 1d 3d 1d 6e 70 bc
       -0.088812664 -0.030564252 0.038561225 -0.014674691
0001c0 27 11 13 bd 3f ba 89 3c 28 21 d0 bd 91 c3 ca 3c
       -0.03590503 0.016812442 -0.10162574 0.024751456
0001d0 bd 84 94 3b 77 4f f6 bc 3b 51 04 3b 3a ae 67 3d
       0.004532425 -0.030067189 0.0020190019 0.05656264
0001e0 7b ea 4e bd 94 80 66 3d 63 11 b0 3d 6b f2 cd 3c
       -0.050516587 0.056274965 0.08597066 0.025140008
0001f0 dd 15 d9 3d 14 1e 44 bc a3 0f 33 3c cb 68 4c 3d
       0.10599873 -0.011970062 0.010929021 0.049904626

bn3.running_mean f4 [128]
000000 e8 a9 9c 3f 3a a1 b5 3f 7c ac b8 3e d4 e8 ea 3d
       1.2239351 1.4189827 0.36069095 0.1147019
000010 96 da ca 3e 4b b3 4a 3e 6c 7c 38 3e e2 cb fa 3e
       0.39619893 0.19794957 0.18016213 0.48983675
000020 99 29 cc 3e ad bb 08 3f b0 b1 2e 3f 1b db f2 3e
       0.39875486 0.5341137 0.6823988 0.4743279
000030 eb 15 39 3f 6a cc 2d 3e 8b e8 d4 3e 8b 06 12 3f
       0.7229907 0.16972509 0.41583666 0.57041234
000040 b8 83 49 3f 1a a6 6d 3f 9f 89 71 3d 2c 08 45 3f
       0.7871661 0.92831576 0.058969136 0.76965594
000050 85 cc 05 3f 43 00 70 3f 6f 7f 89 3e 04 b0 94 3e
       0.522652 0.937504 0.26855037 0.2904054
000060 66 49 33 3e 3e cc b5 3e 6d 2d df 3e 30 8b b5 3e
       0.17508468 0.35507387 0.43589345 0.35457754
000070 e6 e1 2e 3e 6f 2f 50 3e 37 20 83 3e d7 26 65 3f
       0.17078361 0.20330594 0.25610515 0.8951239
000080 88 e4 38 3f 8d 8a 16 3f db 98 8d 3f d2 bb 23 40
       0.7222371 0.5880516 1.1062273 2.5583386
000090 a2 07 7f 3e c2 90 80 3e f0 23 37 3f 4f 8f 7b 3f
       0.24905255 0.2511044 0.7153921 0.98265547
0000a0 0f b0 c4 3d bc 4f 0e 3f 8a a2 73 3f 98 59 2f 3f
       0.09603893 0.55590415 0.9516989 0.68496084
0000b0 f5 b6 8b 3e 56 38 4f 3f 39 57 56 3f 7f 4e b7 3e
       0.27288023 0.80945337 0.8372684 0.35802075
0000c0 f4 b4 15 3f da 15 49 3e 53 37 13 3f 80 93 ff 3e
       0.5847924 0.19637242 0.57506293 0.4991722
0000d0 4d 55 85 3e bb e3 cb 3e 80 75 22 3f 1e 3c 45 3e
       0.26041642 0.39822182 0.6346054 0.19261214
0000e0 c0 8c 25 3f 78 49 cc 3e 66 92 ea 3e 67 3e 74 3e
       0.6466789 0.39899802 0.45814818 0.2385193
0000f0 cf 9d 90 3f d6 fb 7b 3e fb de 03 3f 57 9c a7 3e
       1.1298159 0.24607787 0.51512116 0.32736465
000100 f3 65 1a 3e ed 69 4c 3f a0 ed 9a 3e db 44 8d 3e
       0.15077953 0.7984913 0.30259418 0.27591595
000110 48 ac 4c 3f 82 a1 8a 3f 7a 24 c8 3e ec ed 31 3e
       0.7995038 1.0830538 0.3909033 0.17375916
000120 18 4a b9 3e f6 00 2c 3f 19 eb b9 3e 52 c3 bb 3e
       0.36189342 0.67188966 0.36312178 0.36672455
000130 18 cd e0 3e 01 02 72 3f eb 44 70 3f ab ed 03 3f
       0.43906474 0.9453431 0.9385516 0.5153453
000140 76 01 b9 3e 14 70 bb 3e dd 9e 97 3e 8c 39 f3 3e
       0.36133927 0.36608946 0.2961339 0.47504842
000150 98 1a fa 3e 6c c2 98 3f 74 b2 b6 3e 67 2d 77 3e
       0.48848414 1.1934333 0.35683024 0.24138413
000160 ea 6b 81 3e 94 db 43 3f f3 bf 57 3f 01 a1 a8 3e
       0.25277644 0.76506925 0.84277266 0.32935336
000170 3e 3c 95 3f 44 8c f7 3e 0c b1 2f 3f 89 81 c0 3e
       1.165901 0.48349202 0.6862953 0.37598827
000180 2e 0e 9a 3e a3 1e 92 3f 83 f3 ec 3e e2 7f 60 3f
       0.30088943 1.14156 0.46279535 0.87695134
000190 4b 64 56 3e 8a 05 eb 3e 04 b9 0e 40 27 87 47 3f
       0.20936696 0.45902663 2.2300425 0.779406
0001a0 21 45 56 3f 8a 6f 22 3f 40 46 bc 3e f0 6f 2c 3f
       0.8369923 0.63451445 0.36772346 0.67358303
0001b0 fb 3c 70 3e 6d 39 10 3f ab 8f 37 3f cc 2e e4 3e
       0.23460762 0.56337625 0.71703595 0.44566953
0001c0 59 6f 99 3f 40 36 16 3f b4 69 4e 3e 7f 6d cb 3e
       1.1987106 0.5867653 0.2015751 0.39731976
0001d0 e6 d4 23 3e 3c f7 a0 3f 9a cd 7f 3d 34 3d 3c 3f
       0.15999183 1.257545 0.062451936 0.7353089
0001e0 83 6b 9c 3e 4b bd 3e 3e 85 de 22 3f 69 87 89 3e
       0.30550775 0.18626897 0.6362079 0.26861122
0001f0 88 75 fa 3e 85 8a 89 3e 96 b6 02 3f 80 d1 c4 3e
       0.48917794 0.26863495 0.51059854 0.38441086
